checkpoint.pth (torch_old, 28391 bytes, 6 tensors)

fc1.weight f4 [64, 37]
0.18131217 0.1288248 0.06574059 0.11176384 -0.068712264 0.32269922 -0.7026212 -0.37414137
-0.283261 -1.2828152 0.12894836 0.09027674 0.156332 0.14319074 0.0038239418 0.024968158
0.07493817 0.08524399 -0.03686238 0.012158243 -0.019001344 0.01951673 0.03502822 0.088731244
0.06532532 0.04300775 0.044309974 -0.14287382 -0.09196158 -0.2674942 0.17487961 0.20315962
0.102839515 0.10396287 -0.13930726 0.0008865473 -0.003112599 0.14197041 0.054903615 -0.038129136
0.15792117 0.07054187 -0.13786104 0.21907747 0.20388949 0.24359494 0.15160006 -0.009177145
0.093065605 -0.090786 0.08635292 0.097449526 -0.2578481 0.16078746 0.20102726 0.06153064
0.25199535 0.044902522 0.039467886 -0.08278773 0.15846324 -0.011774875 -0.02838501 0.11249284
0.023405585 -0.1134846 -0.125159 -0.095987044 -0.17251918 -0.045306083 0.2838793 0.16609904
0.08504465 -0.017946813 -0.1336179 -0.03733909 -0.11530346 -0.07742218 0.14397192 0.18086769
-0.058885083 0.1188681 -0.051315345 -0.42426053 0.15481669 0.0029307015 0.0067409948 -0.06616375
-0.07124452 0.14167903 -0.017244203 0.03522348 -0.011608424 0.021026945 -0.008265262 -0.06963666
-0.0019137913 0.0024315414 -0.12071363 -0.060256403 -0.19157624 0.074840575 -0.0854537 -0.17505172
-0.060505725 -0.09947369 -0.027701808 -0.024504665 -0.25417987 0.0739977 0.031311166 0.044247717
0.045585595 -0.07987773 -0.4676147 -0.12435988 -0.020664508 -0.62717384 0.031395186 -0.31290334
-0.9949625 -0.06758942 -0.18733208 -0.0038207315 -0.33473006 -0.13398334 -0.14830607 -0.14425662
0.124755956 -0.0880598 0.016103335 -0.045150906 -0.012541047 0.083246104 -0.10661786 -0.28918296
-0.12361237 -0.33632115 -0.022947783 0.013675866 -0.10526215 -0.16553184 0.18838988 -0.09330834
-0.29892924 -0.435609 -0.051966842 0.08167333 0.07140261 0.075364776 0.0394587 0.023579914
-0.058404252 -0.03328665 0.024155686 0.060047425 0.042444337 0.058460463 0.042659324 0.11822522
0.09379043 0.0939452 0.039265662 -0.055456582 0.0017389414 0.029521499 0.060390107 0.11205288
-0.039533902 0.13708454 0.054239705 0.13955258 0.10950747 -0.08451257 0.04495106 0.008688127
-0.064925976 0.0011746276 0.4822503 -0.55715543 -0.31523952 -0.27859536 -2.1418624 -0.014531122
0.00013615064 0.046457257 0.06070524 0.04024066 0.0342003 -0.05277265 0.04784178 -0.009718465
0.043402605 0.12284696 0.12354747 0.018388575 0.0032110808 0.043034423 0.06457238 0.014731716
-0.06582874 -0.026379714 0.067492425 0.077498905 0.26736012 -0.04075438 -0.1246352 -0.10390178
-0.08461168 0.009198124 0.34458384 -0.1543864 -0.4056274 -0.3056827 -1.5646651 0.13516766
0.07340714 0.03232054 0.008501326 -0.057220444 0.011709704 -0.0014993991 -0.07937575 -0.061330374
-0.067573905 0.117665954 0.23381625 0.12986124 -0.08042714 -0.018798495 -0.22575338 -1.1684834
0.06132931 0.07850585 0.13445769 0.1947894 0.017615564 -0.017142443 -0.047248743 -0.3135409
-0.013814608 0.010674712 -0.0140506355 0.016496528 -0.004044538 -0.11319079 -0.01702608 -0.0069669574
0.2409457 0.15457547 -0.05086136 -0.5492043 0.000112745394 0.08979509 -0.07030814 -0.04681323
00000000: e6a9 393e a6ea 033e 01a3 863d 71e4 e43d
00000010: 04b9 8cbd d538 a53e fcde 33bf 758f bfbe
00000020: 9607 91be 4a33 a4bf 0a0b 043e 03e3 b83d
00000030: 7f15 203e 98a0 123e 199b 7a3b 068a cc3c
00000040: 2f79 993d 6794 ae3d 02fd 16bd 5e33 473c
00000050: b5a8 9bbc 8de1 9f3c c079 0f3d bab8 b53d
00000060: 48c9 853d e528 303d 607e 353d 844d 12be
00000070: 5a56 bcbd 00f5 88be a413 333e 1309 503e
00000080: 869d d23d 7cea d43d 90a6 0ebe 2f67 683a
00000090: bffc 4bbb b160 113e 9de2 603d 4c2d 1cbd
000000a0: 16b6 213e 4278 903d 722b 0dbe d855 603e
000000b0: 68c8 503e f470 793e 0c3d 1b3e bc5b 16bc
000000c0: 2e99 be3d 03ee b9bd cdd9 b03d 9e93 c73d
000000d0: ab04 84be 78a5 243e 17da 4d3e 8d07 7c3d
000000e0: 8905 813e b5eb 373d 14a9 213d 9d8c a9bd
000000f0: 3044 223e 68eb 40bc ae87 e8bc a562 e63d
00000100: 12bd bf3c 9d6a e8bd ae29 00be db94 c4bd
00000110: dea8 30be df92 39bd a158 913e de15 2a3e
00000120: e42b ae3d 3205 93bc 21d3 08be e0f0 18bd
00000130: 3824 ecbd 858f 9ebd 606d 133e 6135 393e
00000140: 7c31 71bd 1e71 f33d 0a30 52bd ad38 d9be
00000150: 4488 1e3e 0311 403b 90e3 dc3b dc80 87bd
00000160: a6e8 91bd 4f14 113e b743 8dbc 7f46 103d
00000170: 4231 3ebc b340 ac3c 056b 07bc aa9d 8ebd
00000180: 2ed8 faba 7f5a 1f3b b538 f7bd 6bcf 76bd
00000190: 902c 44be 0446 993d 5902 afbd c240 33be
000001a0: dad4 77bd ddb8 cbbd e7ee e2bc 02be c8bc
000001b0: dd23 82be 1b8c 973d 2340 003d 183d 353d
000001c0: f6b7 3a3d ef96 a3bd 326b efbe 65b0 febd
000001d0: 9d48 a9bc 778e 20bf 3d98 003d de34 a0be
000001e0: ddb5 7ebf 526c 8abd fbd3 3fbe 3d65 7abb
000001f0: bd61 abbe ee32 09be 8cdd 17be 02b8 13be
00000200: 0d80 ff3d b258 b4bd 24eb 833c 28f0 38bd
00000210: f778 4dbc ef7c aa3d 775a dabd ca0f 94be
00000220: 7b28 fdbd 4932 acbe fdfc bbbc bd10 603c
00000230: af93 d7bd 2e81 29be 47e9 403e 7118 bfbd
00000240: 410d 99be 2508 dfbe 2fdb 54bd 5944 a73d
00000250: 883b 923d d958 9a3d 729f 213d aa2a c13c
00000260: 4c39 6fbd 9557 08bd 25e2 c53c 4af4 753d
00000270: 1dda 2d3d 3d74 6f3d 8bbb 2e3d 1020 f23d
00000280: 3215 c03d 5766 c03d 08d5 203d 7126 63bd
00000290: 31ed e33a 12d7 f13c 9e5b 773d fb7b e53d
000002a0: 4dee 21bd e45f 0c3e 742a 5e3d dfe6 0e3e
000002b0: 7445 e03d ed14 adbd 9a1e 383d a558 0e3c
000002c0: e9f7 84bd f6f5 993a 83e9 f63e bda1 0ebf
000002d0: 1367 a1be 0da4 8ebe 4614 09c0 f113 6ebc
000002e0: a9c3 0e39 f749 3e3d 0fa6 783d 64d3 243d
000002f0: 9d15 0c3d 2228 58bd bef5 433d 323a 1fbc
00000300: eec6 313d 3097 fb3d 7506 fd3d a3a3 963c
00000310: ff70 523b dd44 303d 863e 843d 4c5d 713c
00000320: 38d1 86bd 451a d8bc 7839 8a3d bfb7 9e3d
00000330: 6de3 883e 11ee 26bd bd40 ffbd 75ca d4bd
00000340: e348 adbd bab3 163c 4b6d b03e 7817 1ebe
00000350: 65ae cfbe 7182 9cbe f246 c8bf 6469 0a3e
00000360: 7c56 963d 8b62 043d 2549 0b3c fc5f 6abd
00000370: 0fda 3f3c 7c87 c4ba c18f a2bd 8f35 7bbd
00000380: 3064 8abd d9fa f03d 876d 6f3e 58fa 043e
00000390: fcb6 a4bd 4dff 99bc e52b 67be dd90 95bf
000003a0: 7134 7b3d adc7 a03d 47af 093e df76 473e
000003b0: 844e 903c 4f6e 8cbc e687 41bd 6f88 a0be
000003c0: aa56 62bc fde4 2e3c a334 66bc ba23 873c
000003d0: 0b88 84bb 93d0 e7bd 477a 8bbc 134b e4bb
000003e0: 78ba 763e 0849 1e3e 0054 50bd a798 0cbf
000003f0: b971 ec38 7de6 b73d b7fd 8fbd 3bbf 3fbd

fc1.bias f4 [64]
-0.004042164 0.12572476 0.14942724 -0.051921718 -0.038869575 -0.027442046 0.02240716 -0.009243036
-0.19387071 0.08843144 -0.13353465 0.04537097 -0.033321284 -0.08680097 -0.1288681 0.0031921032
-0.064898826 0.029605694 0.17064326 -0.1007013 0.062401526 -0.09116733 -0.058097895 -0.019497203
-0.108076006 -0.14118275 -0.12889375 -0.12483074 0.1461444 0.12499875 -0.039107468 0.029799713
-0.13883108 -0.023110352 -0.020922652 0.12732555 -0.01707356 0.039443176 0.21212067 -0.13865197
-0.18333736 0.027621768 -0.11239866 0.013671986 0.13124649 -0.16979466 -0.24225128 0.08921212
-0.08128613 0.06977782 -0.11309845 0.12097494 -0.17843248 -0.12213793 0.04789567 0.014380721
0.16361399 -0.010139303 -0.0204845 0.058801565 0.023935728 -0.063648984 0.1380353 -0.22075896
00000000: 2174 84bb febd 003e 7403 193e deab 54bd
00000010: b435 1fbd 24ce e0bc 388f b73c 1a70 17bc
00000020: 0b86 46be 8b1b b53d 4fbd 08be e9d6 393d
00000030: e67b 08bd b5c4 b1bd 00f6 03be 9b32 513b
00000040: ade9 84bd a487 f23c 1bbd 2e3e 7c3c cebd
00000050: be98 7f3d f0b5 babd 0ff8 6dbd 99b8 9fbc
00000060: f456 ddbd 3692 10be b9fc 03be 42a7 ffbd
00000070: e1a6 153e 58ff ff3d 272f 20bd 871e f43c
00000080: bc29 0ebe ec51 bdbc fb65 abbc a161 023e
00000090: dadd 8bbc 2b8f 213d 2936 593e c8fa 0dbe
000000a0: cabc 3bbe 0c47 e23c 4531 e6bd 7700 603c
000000b0: 7b65 063e a7de 2dbe b810 78be d8b4 b63d
000000c0: 5879 a6bd ace7 8e3d 29a0 e7bd b6c1 f73d
000000d0: 01b7 36be 7323 fabd 402e 443d 1e9d 6b3c
000000e0: 6d8a 273e 521f 26bc 1ccf a7bc e9d9 703d
000000f0: dc14 c43c 665a 82bd 2059 0d3e a30e 62be

fc2.weight f4 [64, 64]
0.071632385 0.08745949 -0.09096059 0.055405334 0.080877915 0.08457446 0.13030158 -0.04177238
-0.022989556 0.094729275 0.09389978 -0.06940157 0.065289155 -0.18013045 0.18900178 0.22072926
0.0194931 -0.0026924151 -0.017751198 0.023175761 0.11704467 0.0766453 0.020908037 -0.086293936
0.08695468 0.11678229 0.51659024 -0.20926654 0.34782052 -0.009253368 0.34208977 0.23542827
-0.04499647 -0.0715899 0.17902327 -0.086818896 0.1198633 -0.16938885 0.034399383 -0.052294157
-0.06116026 0.090622164 -0.09038414 -0.06300602 0.14355898 0.07674115 -0.018184746 -0.040137313
0.11678165 -0.029657992 0.098133944 0.02421876 -0.074253164 -0.09545648 -0.09540255 0.11487507
0.091570206 0.023323702 -0.12029596 0.028044257 -0.014115022 -0.14236414 0.05291168 -0.0452409
0.14883979 0.042396672 0.038906023 -0.1391012 0.0582386 -0.05058155 -0.03568744 -0.023075666
-0.0019729093 0.066956796 -0.048955407 -0.045854755 -0.09984972 -0.03364763 -0.049809784 0.28650174
-0.06410442 0.10705775 0.15735748 0.11533905 0.06805599 0.17077965 0.36066213 0.07576188
0.06317523 0.00032294058 -0.37135068 -0.013228105 0.21205935 0.121041216 -0.06029176 -0.059897684
-0.3036811 0.10574402 -0.046725847 -0.042452723 -0.14689256 0.01408875 0.12224442 0.04411332
-0.03450165 0.053054612 0.17174911 0.04861234 0.081090145 -0.07057562 -0.31835058 -0.009219724
0.11104026 0.03626125 -0.037566263 -0.18580891 -0.13077158 -0.061420497 -0.04165026 -0.03472965
-0.005684094 -0.031993397 -0.15875004 -0.23257485 0.07542863 -0.066725776 -0.1427874 0.06836166
0.0929351 0.091536485 0.059618168 0.0026504295 0.014649169 0.065138206 -0.022237275 0.14807677
-0.01998587 0.08913158 0.040787734 0.115510434 -0.015640546 0.09780592 0.17120233 0.049331255
0.022760227 -0.0852794 -0.08583128 -0.052717898 0.056329686 0.036619008 0.30057788 -0.08008695
-0.07928172 -0.006207763 0.32202908 -0.09736375 0.32968566 -0.028903984 0.16711046 0.109352924
0.062376995 0.043311622 0.11295832 0.022117725 0.1122273 0.097738326 0.1446755 -0.01658652
-0.13236809 -0.028463913 0.050045382 0.08690177 -0.04131742 0.09872855 0.0016898422 0.011066687
0.119686686 0.0017334523 0.09646325 0.025234131 0.054002255 -0.13501656 -0.10918822 0.012438634
0.09511951 0.051767636 0.03456541 -0.18201798 0.05055748 -0.05498124 -0.044730473 -0.017693685
0.10846203 0.044162072 -0.038039956 0.01597531 0.54861 -0.21756835 0.11478392 -0.24650075
0.02917343 0.10341685 -0.075986296 -0.034113094 0.026985938 -0.020257417 0.15347807 0.17653847
0.09060976 -0.326943 0.023594148 -0.04638385 -0.09210526 -0.06449911 -0.6158772 -0.10724833
0.13483977 -0.089601934 -0.19631374 -0.101300865 0.36936507 -0.30304042 -0.22129717 -0.0876281
0.05261082 -0.05983085 0.0987129 -0.046035174 0.004809902 -0.117008395 0.037438314 0.072742924
-0.029767843 -0.067560926 -0.107236825 -0.22895403 -0.123893455 -0.114677146 0.13273337 0.104856916
-0.25026745 -0.1825876 0.093623646 0.055996686 -0.08632872 -0.10344487 0.04264384 0.08265004
0.05470727 0.05616774 0.008836104 0.0467982 -0.06548874 -0.1721223 -0.013302845 0.07882855
00000000: 00b4 923d f61d b33d 8c49 babd b4f0 623d
00000010: 52a3 a53d 6035 ad3d c76d 053e 8419 2bbd
00000020: 9854 bcbc 6c01 c23d 874e c03d 6922 8ebd
00000030: 52b6 853d 1e74 38be af89 413e da06 623e
00000040: feaf 9f3c 3b73 30bb f66a 91bc 18db bd3c
00000050: 1eb5 ef3d 36f8 9c3d 5547 ab3c e0ba b0bd
00000060: 4c15 b23d 8e2b ef3d 423f 043f f849 56be
00000070: 8815 b23e 709b 17bc 6426 af3e 1c14 713e
00000080: 384e 38bd ba9d 92bd e051 373e 1bce b1bd
00000090: e47a f53d 4574 2dbe 5ee6 0c3d 6632 56bd
000000a0: 2e83 7abd 1d98 b93d 521b b9bd 4d09 81bd
000000b0: 2001 133e 772a 9d3d 2df8 94bc 0667 24bd
000000c0: 382b ef3d 51f5 f2bc 73fa c83d 6c66 c63c
000000d0: 0b12 98bd b07e c3bd 6a62 c3bd 9f43 eb3d
000000e0: 2989 bb3d 5911 bf3c ba5d f6bd 12bd e53c
000000f0: b142 67bc e8c7 11be ebb9 583d 864e 39bd
00000100: 7569 183e 22a8 2d3d ec5b 1f3d 8c70 0ebe
00000110: 998b 6e3d 992e 4fbd fe2c 12bd 2e09 bdbc
00000120: ed4b 01bb a520 893d 7785 48bd 32d2 3bbd
00000130: 037e ccbd 19d2 09bd 5805 4cbd 5bb0 923e
00000140: 2e49 83bd 1841 db3d 5222 213e e136 ec3d
00000150: f060 8b3d dce0 2e3e b5a8 b83e 0b29 9b3d
00000160: 0462 813d 5a50 a939 ad21 bebe b2ba 58bc
00000170: 1626 593e 75e4 f73d 7ef4 76bd 4657 75bd
00000180: 177c 9bbe 5290 d83d 9a63 3fbd e8e2 2dbd
00000190: 016b 16be 80d4 663c 485b fa3d 2bb0 343d
000001a0: 9a51 0dbd cb4f 593d 00df 2f3e bc1d 473d
000001b0: 9712 a63d f389 90bd d9fe a2be 530e 17bc
000001c0: 1369 e33d ad86 143d 15df 19bd b144 3ebe
000001d0: fce8 05be 0f94 7bbd 7799 2abd ad40 0ebd
000001e0: a341 babb 820b 03bd 5f8f 22be 1a28 6ebe
000001f0: 537a 9a3d 86a7 88bd dc36 12be 3301 8c3d
00000200: c254 be3d 7b77 bb3d 2e32 743d d4b2 2d3b
00000210: 1103 703c 2e67 853d f22a b6bc 70a1 173e
00000220: 68b9 a3bc 9e8a b63d 0a11 273d bc90 ec3d
00000230: 9a20 80bc 784e c83d aa4f 2f3e 920f 4a3d
00000240: a873 ba3c f7a6 aebd 4fc8 afbd b9ee 57bd
00000250: f5b9 663d d0fd 153d 58e5 993e a004 a4bd
00000260: 745e a2bd 7e6a cbbb ffe0 a43e a566 c7bd
00000270: 8fcc a83e 0cc8 ecbc 011f 2b3e 6df4 df3d
00000280: 057f 7f3d 8767 313d b156 e73d 3b30 b53c
00000290: 6dd7 e53d 082b c83d d025 143e 74e0 87bc
000002a0: 808b 07be 272d e9bc 63fc 4c3d 8ef9 b13d
000002b0: 743c 29bd 3232 ca3d b27d dd3a 0d51 353c
000002c0: 4b1e f53d 0235 e33a 868e c53d cfb7 ce3c
000002d0: 7831 5d3d c841 0abe 139e dfbd 6acb 4b3c
000002e0: 05ce c23d 4d0a 543d 7694 0d3d ec62 3abe
000002f0: 5c15 4f3d 0234 61bd 4d37 37bd 59f2 90bc
00000300: 5721 de3d 4ae3 343d c9cf 1bbd a7de 823c
00000310: b471 0c3f 3dca 5ebe d513 eb3d b16a 7cbe
00000320: 1efd ee3c 37cc d33d b49e 9bbd 2cba 0bbd
00000330: 9d11 dd3c e2f2 a5bc 5b29 1d3e 80c6 343e
00000340: 9c91 b93d 1365 a7be 8448 c13c fefc 3dbd
00000350: afa1 bcbd 1c18 84bd 21aa 1dbf 03a5 dbbd
00000360: 7013 0a3e 3881 b7bd 7806 49be d476 cfbd
00000370: 6b1d bd3e 1d28 9bbe ba9b 62be 5c76 b3bd
00000380: 717e 573d 3211 75bd fd29 ca3d 618f 3cbd
00000390: 629c 9d3b 19a2 efbd eb58 193d 3efa 943d
000003a0: b1db f3bc 625d 8abd fb9e dbbd ed72 6abe
000003b0: dabb fdbd dadb eabd 42eb 073e 39bf d63d
000003c0: 0e23 80be 3ef8 3abe c1bd bf3d c85c 653d
000003d0: 1dcd b0bd e7da d3bd 4fab 2e3d 6d44 a93d
000003e0: bb14 603d 2510 663d 4ec5 103c 78af 3f3d
000003f0: f61e 86bd d440 30be 2df4 59bc dd70 a13d

fc2.bias f4 [64]
0.34731495 -0.078670114 0.26785302 -0.0062800753 0.038153596 0.25406653 0.021659063 -0.0024788678
0.18404579 -0.031703234 0.027522959 0.065011725 -0.03259499 0.04944004 0.020796604 -0.12139663
-0.1386868 0.16962568 0.11200225 0.34096164 -0.09375515 -0.1844367 0.035170946 0.35802615
0.24079052 -0.109046146 0.023528432 0.28866285 -0.028877914 -0.1777496 -0.07076723 -0.13736176
0.05983748 0.13051575 -0.016683351 -0.14841554 0.165642 0.18961963 0.13579978 0.11318888
0.16902727 0.010422702 0.025297387 0.36769173 0.20128849 0.11096744 0.15314186 0.15396155
0.13019954 0.13826376 -0.18610674 0.11705564 -0.2298153 0.08012292 0.095121615 0.012976901
0.048484903 0.08004753 0.31561413 -0.051756687 0.117461264 -0.04503904 0.20155385 0.1499955
00000000: 44d3 b13e cc1d a1bd 0824 893e 17c9 cdbb
00000010: f246 1c3d 0215 823e 596e b13c 8074 22bb
00000020: 8076 3c3e 40db 01bd d477 e13c de24 853d
00000030: 5382 05bd a481 4a3d a45d aa3c cc9e f8bd
00000040: ea03 0ebe 5bb2 2d3e 7061 e53d 8692 ae3e
00000050: b302 c0bd f9dc 3cbe 690f 103d 344f b73e
00000060: ca91 763e 9653 dfbd b3be c03c 9ecb 933e
00000070: 6091 ecbc fe03 36be 69ee 90bd 90a8 0cbe
00000080: 2518 753d eca5 053e 86ab 88bc 3efa 17be
00000090: 0e9e 293e a62b 423e 190f 0b3e 92cf e73d
000000a0: 7c15 2d3e fbc3 2a3c 773c cf3c 1742 bc3e
000000b0: 921e 4e3e e642 e33d 38d1 1c3e 19a8 1d3e
000000c0: 0753 053e 0495 0d3e c492 3ebe deba ef3d
000000d0: b454 6bbe 7c17 a43d 1fcf c23d 119d 543c
000000e0: 1b98 463d f6ef a33d 2d98 a13e d2fe 53bd
000000f0: 888f f03d db7a 38bd 2264 4e3e 6c98 193e

fc3.weight f4 [4, 64]
0.18433662 -0.0981717 0.13324629 0.027937666 -0.06497352 0.11296498 -0.017957117 0.0061531886
0.16186005 -0.22358799 0.17584038 -0.37370616 -0.061897255 0.13842574 -0.020695662 -0.2481838
0.0038458027 0.15069526 0.08805027 0.18606411 0.059707668 -0.18046147 0.08468985 0.1500222
0.21434581 0.05999557 0.2778538 0.11441941 -0.5096476 -0.08704401 -0.03187018 0.02516619
-0.009584917 0.14833301 -0.20597367 -0.21584186 0.17880736 0.11152271 -0.0062527354 0.10134886
0.15354437 0.45213768 0.073015414 0.1763737 0.1293819 0.33673906 0.18119507 0.121054135
-0.5056289 0.21928754 -0.19708627 0.1428987 -0.12023693 -0.56832796 0.3468489 0.027181638
0.45832592 0.50858885 0.073245965 0.51005065 0.10007251 0.1665665 0.095421135 0.034258157
0.19089454 3.926209e-05 0.0890559 0.080172814 0.08948554 0.10767775 -0.8420371 9.4940944e-05
0.12013539 -0.22998725 0.18714745 0.021721598 0.00573534 -0.025082083 0.13440077 -0.27801955
0.06904856 0.07530719 0.0930883 0.17101125 0.1365982 -0.028815104 0.15114406 0.06391232
0.22789522 -0.5838862 0.16291359 0.11153805 -0.16084443 -0.07411502 -0.08963784 0.006870513
0.1090194 -0.02123051 -0.10843193 -0.14241946 0.24043567 0.098201275 0.28644758 0.02914266
0.034634516 0.31918308 0.25843647 0.14235966 0.048032265 0.643731 0.24987203 0.121879525
-0.09067911 0.24172318 -0.13768879 0.19966786 -0.045707338 -0.11707912 0.42121658 0.040778454
-0.2824022 0.44281057 0.17120415 0.23795389 0.07572657 0.17349619 0.1203624 0.0025590411
0.21631934 0.20988913 0.12504393 0.17069495 0.04502703 0.026185594 -0.23718809 -0.26035377
0.074168645 -0.20069517 0.33302465 -0.1572373 -0.08856038 0.18940376 0.5367175 -0.06884837
0.34441847 0.071020514 0.11934269 0.035732012 0.28490508 0.092186324 0.08523277 0.13331443
0.23502335 -0.33323112 0.30629095 0.1637783 0.11823381 -0.18963823 -0.18941943 -0.069516316
0.23767848 0.20305865 -0.36106282 -0.31607127 0.1689326 0.02319812 0.38138124 -0.4892802
-0.008137692 0.28445765 0.30405903 0.14719424 0.17581446 0.06488459 0.123016395 0.23322509
-0.38391948 -0.04071681 -0.06849255 0.024948101 -0.093844734 -0.4477107 0.40046874 -0.18969053
0.3160288 0.27196163 0.15796764 0.041003123 0.34428048 0.33178034 0.13568532 0.14506283
0.066799045 0.025984682 0.06293081 0.25438556 0.2658712 0.08300788 -0.16917716 -0.11140983
-0.02439593 -0.24502848 0.059116904 -0.07019025 0.029470684 0.11835265 0.406363 -0.0183295
-0.05782134 0.12410254 0.13061894 0.14852197 0.5315205 -0.17707139 0.24863929 0.16450053
0.15594459 0.017226912 0.1270939 0.13372165 0.020779505 -0.16319533 -0.16850033 -0.03761744
0.2908246 0.07759698 -0.07948871 -0.021021299 0.101533405 0.042887818 0.047702298 0.15982595
0.093567766 0.19545214 -0.59000456 0.11142908 0.09568444 0.665996 0.27785665 0.1903435
-0.4883443 0.047958013 -0.33021814 0.14680165 -0.16111185 -0.36945555 0.24703082 0.17689632
0.28793615 0.47684512 0.14396498 0.4143899 -0.0024642004 0.12183931 0.18140507 0.20085303
00000000: bdc2 3c3e 3f0e c9bd b771 083e 88dd e43c
00000010: d610 85bd 2f5a e73d ce1a 93bc b0a0 c93b
00000020: a4be 253e 40f4 64be 800f 343e 6a56 bfbe
00000030: fa87 7dbd 7abf 0d3e f389 a9bc e523 7ebe
00000040: dd09 7c3b dc4f 1a3e b353 b43d 9787 3e3e
00000050: 0790 743d e4ca 38be df71 ad3d 6b9f 193e
00000060: 787d 5b3e eabd 753d da42 8e3e b954 ea3d
00000070: 4478 02bf 2144 b2bd 4e8a 02bd 5329 ce3c
00000080: 0e0a 1dbc 9ce4 173e c3ea 52be a605 5dbe
00000090: 4719 373e 0566 e43d bfe3 ccbb fe8f cf3d
000000a0: bc3a 1d3e 977e e73e 1b89 953d 4f9b 343e
000000b0: b07c 043e 1069 ac3e 338b 393e 3beb f73d
000000c0: e570 01bf ea8c 603e fcd0 49be 0954 123e
000000d0: c83e f6bd f17d 11bf 2e96 b13e 07ac de3c
000000e0: b2a9 ea3e e132 023f fb01 963d ae92 023f
000000f0: d1f2 cc3d 6990 2a3e 286c c33d 4852 0c3d
00000100: dc79 433e 59ad 2438 f162 b63d a531 a43d
00000110: 3244 b73d 2786 dc3d be8f 57bf 081b c738
00000120: 8b09 f63d c781 6bbe 95a3 3f3e 7ef1 b13c
00000130: 85ef bb3b f178 cdbc 5ba0 093e 9458 8ebe
00000140: 5569 8d3d a83a 9a3d 14a5 be3d 931d 2f3e
00000150: 66e0 0b3e a70d ecbc 82c5 1a3e 76e4 823d
00000160: 5d5d 693e 9179 15bf d2d2 263e 106e e43d
00000170: 67b4 24be 9ec9 97bd 0b94 b7bd 0a22 e13b
00000180: 9045 df3d 9beb adbc 8f11 debd 68d6 11be
00000190: c534 763e c01d c93d 42a9 923e 96bc ee3c
000001a0: ecdc 0d3d f76b a33e c951 843e bbc6 113e
000001b0: 7bbd 443d 8ecb 243f 74de 7f3e f99b f93d
000001c0: f8b5 b9bd 4886 773e 4afe 0cbe bb75 4c3e
000001d0: 9e37 3bbd 2dc7 efbd b3a9 d73e 4f07 273d
000001e0: 0597 90be 11b8 e23e 2450 2f3e 2faa 733e
000001f0: 8816 9b3d fca8 313e 9080 f63d 96b5 273b
00000200: d182 5d3e 2ded 563e 840b 003e a8ca 2e3e
00000210: 436e 383d 2c83 d63c 6fe1 72be 174d 85be
00000220: bbe5 973d 0983 4dbe 3582 aa3e d102 21be
00000230: 255f b5bd 0ff3 413e 5166 093f 6000 8dbd
00000240: 9e57 b03e 3473 913d f169 f43d bb5b 123d
00000250: 14df 913e 2fcc bc3d 858e ae3d 9483 083e
00000260: f6a9 703e 459d aabe 2bd2 9c3e 80b5 273e
00000270: 9124 f23d 8630 42be 2bf7 41be 925e 8ebd
00000280: fd61 733e 9bee 4f3e 3add b8be 18d4 a1be
00000290: abfc 2c3e fc09 be3c 6744 c33e ef82 fabe
000002a0: f453 05bc 6fa4 913e a0ad 9b3e 16ba 163e
000002b0: b508 343e 36e2 843d 05f0 fb3d 8fd2 6e3e
000002c0: 1891 c4be abc6 26bd d245 8cbd f65f cc3c
000002d0: ab31 c0bd 563a e5be 3d0a cd3e 3c3e 42be
000002e0: 87ce a13e 8e3e 8b3e 45c2 213e e4f2 273d
000002f0: 8845 b03e 1ddf a93e 18f1 0a3e 5a8b 143e
00000300: f0cd 883d d4dd d43c dee1 803d d33e 823e
00000310: 4520 883e 0900 aa3d c73c 2dbe d62a e4bd
00000320: f9d9 c7bc bfe8 7abe 9124 723d e8bf 8fbd
00000330: 816c f13c e062 f23d d00e d03e bf27 96bc
00000340: 12d6 6cbd 7929 fe3d f9c0 053e 2516 183e
00000350: ba11 083f 3452 35be 4c9b 7e3e d472 283e
00000360: f0af 1f3e 741f 8d3c e724 023e 54ee 083e
00000370: c839 aa3c ad1c 27be 5a8b 2cbe bf14 1abd
00000380: f6e6 943e 2aeb 9e3d faca a2bd dc34 acbc
00000390: bff0 cf3d 23ab 2f3d 7c63 433d 6aa9 233e
000003a0: 75a0 bf3d 9b24 483e 8a0a 17bf ee34 e43d
000003b0: 34f6 c33d b77e 2a3f 3a43 8e3e 68e9 423e
000003c0: 4408 fabe 9f6f 443d 5a12 a9be 2c53 163e
000003d0: 81fa 24be 4729 bdbe a6f5 7c3e 4f24 353e
000003e0: 5e6c 933e 0b25 f43e 8e6b 133e ea2a d43e
000003f0: 6c7e 21bb e386 f93d 40c2 393e 6bac 4d3e

fc3.bias f4 [4]
0.18704914 0.25775257 0.21994275 0.2167519
00000000: cf89 3f3e 25f8 833e ac38 613e 36f4 5d3e
